…
--------> compareAnnAccuracies START
--------> compareAnnAccuracies START
--------> compareAnnAccuracies START
--------> compareAnnAccuracies START
--------> epochsList: [1, 1, 1, 1, 1, 1, 1, 1, 1, 1, 1, 1, 1, 1, 1, 1, 1, 1, 1, 1]
--------> sum epochsList: 20
--------> New iteration with epochs:1

   ---> CNN SUMMARY
input_shape = (None, 28, 28)
output_shape = (None, 10)
_________________________________________________________________
Layer (type)                 Output Shape              Param #   
=================================================================
reshape_39 (Reshape)         (None, 28, 28, 1)         0         
_________________________________________________________________
conv2d_191 (Conv2D)          (None, 26, 26, 64)        640       
_________________________________________________________________
conv2d_192 (Conv2D)          (None, 24, 24, 48)        27696     
_________________________________________________________________
max_pooling2d_115 (MaxPoolin (None, 12, 12, 48)        0         
_________________________________________________________________
dropout_210 (Dropout)        (None, 12, 12, 48)        0         
_________________________________________________________________
conv2d_193 (Conv2D)          (None, 10, 10, 32)        13856     
_________________________________________________________________
conv2d_194 (Conv2D)          (None, 8, 8, 18)          5202      
_________________________________________________________________
max_pooling2d_116 (MaxPoolin (None, 4, 4, 18)          0         
_________________________________________________________________
dropout_211 (Dropout)        (None, 4, 4, 18)          0         
_________________________________________________________________
conv2d_195 (Conv2D)          (None, 2, 2, 18)          2934      
_________________________________________________________________
max_pooling2d_117 (MaxPoolin (None, 1, 1, 18)          0         
_________________________________________________________________
dropout_212 (Dropout)        (None, 1, 1, 18)          0         
_________________________________________________________________
flatten_39 (Flatten)         (None, 18)                0         
_________________________________________________________________
dense_476 (Dense)            (None, 64)                1216      
_________________________________________________________________
dense_477 (Dense)            (None, 32)                2080      
_________________________________________________________________
dense_478 (Dense)            (None, 24)                792       
_________________________________________________________________
dense_479 (Dense)            (None, 18)                450       
_________________________________________________________________
dropout_213 (Dropout)        (None, 18)                0         
_________________________________________________________________
dense_480 (Dense)            (None, 10)                190       
=================================================================
Total params: 55,056
Trainable params: 55,056
Non-trainable params: 0
_________________________________________________________________
   ---> CNN END SUMMARY

   ----> Training CNN Model (epochs: 1)
   ----> Training CNN Model DONE (epochs: 1)

   ----> Evaluating CNN

   ---> Test Results CNN: accuracy: 0.9649

   ----> Evaluating CNN DONE
…
--------> compareAnnAccuracies START
--------> compareAnnAccuracies START
--------> compareAnnAccuracies START
--------> compareAnnAccuracies START
--------> compareAnnAccuracies START
--------> epochsList: [1, 1, 1, 1, 1, 1, 1, 1, 1, 1, 1, 1, 1, 1, 1, 1, 2, 2, 2, 2, 2, 2, 2, 2, 2, 2, 2, 2, 2, 2, 2]
--------> sum epochsList: 46

   ---> CNN SUMMARY
input_shape = (None, 28, 28)
output_shape = (None, 10)
_________________________________________________________________
Layer (type)                 Output Shape              Param #   
=================================================================
reshape_1 (Reshape)          (None, 28, 28, 1)         0         
_________________________________________________________________
lambda_1 (Lambda)            (None, 28, 28, 1)         0         
_________________________________________________________________
conv2d_1 (Conv2D)            (None, 26, 26, 64)        640       
_________________________________________________________________
conv2d_2 (Conv2D)            (None, 24, 24, 48)        27696     
_________________________________________________________________
max_pooling2d_1 (MaxPooling2 (None, 12, 12, 48)        0         
_________________________________________________________________
dropout_1 (Dropout)          (None, 12, 12, 48)        0         
_________________________________________________________________
conv2d_3 (Conv2D)            (None, 10, 10, 32)        13856     
_________________________________________________________________
conv2d_4 (Conv2D)            (None, 8, 8, 18)          5202      
_________________________________________________________________
max_pooling2d_2 (MaxPooling2 (None, 4, 4, 18)          0         
_________________________________________________________________
dropout_2 (Dropout)          (None, 4, 4, 18)          0         
_________________________________________________________________
conv2d_5 (Conv2D)            (None, 2, 2, 18)          2934      
_________________________________________________________________
max_pooling2d_3 (MaxPooling2 (None, 1, 1, 18)          0         
_________________________________________________________________
dropout_3 (Dropout)          (None, 1, 1, 18)          0         
_________________________________________________________________
flatten_1 (Flatten)          (None, 18)                0         
_________________________________________________________________
dense_1 (Dense)              (None, 64)                1216      
_________________________________________________________________
dense_2 (Dense)              (None, 32)                2080      
_________________________________________________________________
dense_3 (Dense)              (None, 24)                792       
_________________________________________________________________
dense_4 (Dense)              (None, 18)                450       
_________________________________________________________________
dropout_4 (Dropout)          (None, 18)                0         
_________________________________________________________________
dense_5 (Dense)              (None, 10)                190       
=================================================================
Total params: 55,056
Trainable params: 55,056
Non-trainable params: 0
_________________________________________________________________
   ---> CNN END SUMMARY


   ---> DNN SUMMARY
input_shape = (None, 25)
output_shape = (None, 10)
_________________________________________________________________
Layer (type)                 Output Shape              Param #   
=================================================================
dense_6 (Dense)              (None, 64)                1664      
_________________________________________________________________
dense_7 (Dense)              (None, 32)                2080      
_________________________________________________________________
dense_8 (Dense)              (None, 24)                792       
_________________________________________________________________
dense_9 (Dense)              (None, 18)                450       
_________________________________________________________________
dropout_5 (Dropout)          (None, 18)                0         
_________________________________________________________________
dense_10 (Dense)             (None, 10)                190       
=================================================================
Total params: 5,176
Trainable params: 5,176
Non-trainable params: 0
_________________________________________________________________
   ---> DNN END SUMMARY


   ---> DNN SUMMARY
input_shape = (None, 18)
output_shape = (None, 10)
_________________________________________________________________
Layer (type)                 Output Shape              Param #   
=================================================================
dense_11 (Dense)             (None, 64)                1216      
_________________________________________________________________
dense_12 (Dense)             (None, 32)                2080      
_________________________________________________________________
dense_13 (Dense)             (None, 24)                792       
_________________________________________________________________
dense_14 (Dense)             (None, 18)                450       
_________________________________________________________________
dropout_6 (Dropout)          (None, 18)                0         
_________________________________________________________________
dense_15 (Dense)             (None, 10)                190       
=================================================================
Total params: 4,728
Trainable params: 4,728
Non-trainable params: 0
_________________________________________________________________
   ---> DNN END SUMMARY


   ---> CNN SUMMARY
input_shape = (None, 28, 28)
output_shape = (None, 10)
_________________________________________________________________
Layer (type)                 Output Shape              Param #   
=================================================================
reshape_2 (Reshape)          (None, 28, 28, 1)         0         
_________________________________________________________________
lambda_2 (Lambda)            (None, 28, 28, 1)         0         
_________________________________________________________________
conv2d_6 (Conv2D)            (None, 26, 26, 64)        640       
_________________________________________________________________
conv2d_7 (Conv2D)            (None, 24, 24, 48)        27696     
_________________________________________________________________
max_pooling2d_4 (MaxPooling2 (None, 12, 12, 48)        0         
_________________________________________________________________
dropout_7 (Dropout)          (None, 12, 12, 48)        0         
_________________________________________________________________
conv2d_8 (Conv2D)            (None, 10, 10, 32)        13856     
_________________________________________________________________
conv2d_9 (Conv2D)            (None, 8, 8, 18)          5202      
_________________________________________________________________
max_pooling2d_5 (MaxPooling2 (None, 4, 4, 18)          0         
_________________________________________________________________
dropout_8 (Dropout)          (None, 4, 4, 18)          0         
_________________________________________________________________
conv2d_10 (Conv2D)           (None, 2, 2, 25)          4075      
_________________________________________________________________
max_pooling2d_6 (MaxPooling2 (None, 1, 1, 25)          0         
_________________________________________________________________
dropout_9 (Dropout)          (None, 1, 1, 25)          0         
_________________________________________________________________
flatten_2 (Flatten)          (None, 25)                0         
_________________________________________________________________
dense_16 (Dense)             (None, 64)                1664      
_________________________________________________________________
dense_17 (Dense)             (None, 32)                2080      
_________________________________________________________________
dense_18 (Dense)             (None, 24)                792       
_________________________________________________________________
dense_19 (Dense)             (None, 18)                450       
_________________________________________________________________
dropout_10 (Dropout)         (None, 18)                0         
_________________________________________________________________
dense_20 (Dense)             (None, 10)                190       
=================================================================
Total params: 56,645
Trainable params: 56,645
Non-trainable params: 0
_________________________________________________________________
   ---> CNN END SUMMARY


   ---> DNN SUMMARY
input_shape = (None, 25)
output_shape = (None, 10)
_________________________________________________________________
Layer (type)                 Output Shape              Param #   
=================================================================
dense_21 (Dense)             (None, 64)                1664      
_________________________________________________________________
dense_22 (Dense)             (None, 32)                2080      
_________________________________________________________________
dense_23 (Dense)             (None, 24)                792       
_________________________________________________________________
dense_24 (Dense)             (None, 18)                450       
_________________________________________________________________
dropout_11 (Dropout)         (None, 18)                0         
_________________________________________________________________
dense_25 (Dense)             (None, 10)                190       
=================================================================
Total params: 5,176
Trainable params: 5,176
Non-trainable params: 0
_________________________________________________________________
   ---> DNN END SUMMARY

------>>>   RESULTS:
['epochs', ['cnn1', 'dnn_huConv', 'dnn_conv', 'cnn2', 'dnn_conv2'], ['descSortedIndexes']]
[1, [0.957, 0.9636, 0.9667, 0.9658, 0.975], [4, 2, 3, 1, 0]]
…
###############################################
###############################################
###############################################
###############################################


[1, [0.9648, 0.9696, 0.9688, 0.9652, 0.9674], [1, 2, 4, 3, 0, ]]
[1, [0.96, 0.9705, 0.9683, 0.9632, 0.9742], [4, 1, 2, 3, 0, ]]

   ---> CNN SUMMARY
input_shape = (None, 28, 28)
output_shape = (None, 10)
_________________________________________________________________
Layer (type)                 Output Shape              Param #
=================================================================
reshape_1 (Reshape)          (None, 28, 28, 1)         0
_________________________________________________________________
lambda_1 (Lambda)            (None, 28, 28, 1)         0
_________________________________________________________________
conv2d_1 (Conv2D)            (None, 26, 26, 30)        300
_________________________________________________________________
conv2d_2 (Conv2D)            (None, 24, 24, 25)        6775
_________________________________________________________________
max_pooling2d_1 (MaxPooling2 (None, 12, 12, 25)        0
_________________________________________________________________
dropout_1 (Dropout)          (None, 12, 12, 25)        0
_________________________________________________________________
conv2d_3 (Conv2D)            (None, 10, 10, 25)        5650
_________________________________________________________________
conv2d_4 (Conv2D)            (None, 8, 8, 20)          4520
_________________________________________________________________
max_pooling2d_2 (MaxPooling2 (None, 4, 4, 20)          0
_________________________________________________________________
dropout_2 (Dropout)          (None, 4, 4, 20)          0
_________________________________________________________________
conv2d_5 (Conv2D)            (None, 2, 2, 18)          3258
_________________________________________________________________
max_pooling2d_3 (MaxPooling2 (None, 1, 1, 18)          0
_________________________________________________________________
dropout_3 (Dropout)          (None, 1, 1, 18)          0
_________________________________________________________________
flatten_1 (Flatten)          (None, 18)                0
_________________________________________________________________
dense_1 (Dense)              (None, 90)                1710
_________________________________________________________________
dense_2 (Dense)              (None, 70)                6370
_________________________________________________________________
dense_3 (Dense)              (None, 50)                3550
_________________________________________________________________
dense_4 (Dense)              (None, 30)                1530
_________________________________________________________________
dropout_4 (Dropout)          (None, 30)                0
_________________________________________________________________
dense_5 (Dense)              (None, 10)                310
=================================================================
Total params: 33,973
Trainable params: 33,973
Non-trainable params: 0
_________________________________________________________________
   ---> CNN END SUMMARY




############################################################
############################################################
############################################################
…
--------> epochsList: [1, 1, 1, 1, 1, 1, 1, 1, 1, 1, 1, 1, 1, 1, 1, 1, 1, 1, 1, 1, 1, 1, 1, 1, 1, 1, 1, 1, 1, 1, 1, 1, 1, 1, 1, 1, 1, 1, 1, 1, 1, 1, 1, 1, 1, 1, 1, 1, 1, 1, 1, 1, 1, 1, 1, 1, 1, 1, 1, 1, 1, 1, 1, 1, 1, 1, 1, 1, 1, 1, 1, 1, 1, 1, 1, 1, 1, 1, 1, 1, 1, 1, 1, 1, 1, 1, 1, 1, 1, 1, 1, 1, 1, 1, 1, 1, 1, 1, 1, 1]
--------> sum epochsList: 100

   ---> CNN SUMMARY
input_shape = (None, 28, 28)
output_shape = (None, 10)
_________________________________________________________________
Layer (type)                 Output Shape              Param #   
=================================================================
reshape_1 (Reshape)          (None, 28, 28, 1)         0         
_________________________________________________________________
lambda_1 (Lambda)            (None, 28, 28, 1)         0         
_________________________________________________________________
conv2d_1 (Conv2D)            (None, 26, 26, 30)        300       
_________________________________________________________________
conv2d_2 (Conv2D)            (None, 24, 24, 25)        6775      
_________________________________________________________________
max_pooling2d_1 (MaxPooling2 (None, 12, 12, 25)        0         
_________________________________________________________________
dropout_1 (Dropout)          (None, 12, 12, 25)        0         
_________________________________________________________________
conv2d_3 (Conv2D)            (None, 10, 10, 25)        5650      
_________________________________________________________________
conv2d_4 (Conv2D)            (None, 8, 8, 20)          4520      
_________________________________________________________________
max_pooling2d_2 (MaxPooling2 (None, 4, 4, 20)          0         
_________________________________________________________________
dropout_2 (Dropout)          (None, 4, 4, 20)          0         
_________________________________________________________________
conv2d_5 (Conv2D)            (None, 2, 2, 18)          3258      
_________________________________________________________________
max_pooling2d_3 (MaxPooling2 (None, 1, 1, 18)          0         
_________________________________________________________________
dropout_3 (Dropout)          (None, 1, 1, 18)          0         
_________________________________________________________________
flatten_1 (Flatten)          (None, 18)                0         
_________________________________________________________________
dense_1 (Dense)              (None, 90)                1710      
_________________________________________________________________
dense_2 (Dense)              (None, 70)                6370      
_________________________________________________________________
dense_3 (Dense)              (None, 50)                3550      
_________________________________________________________________
dense_4 (Dense)              (None, 40)                2040      
_________________________________________________________________
dense_5 (Dense)              (None, 30)                1230      
_________________________________________________________________
dense_6 (Dense)              (None, 20)                620       
_________________________________________________________________
dropout_4 (Dropout)          (None, 20)                0         
_________________________________________________________________
dense_7 (Dense)              (None, 10)                210       
=================================================================
Total params: 36,233
Trainable params: 36,233
Non-trainable params: 0
_________________________________________________________________
   ---> CNN END SUMMARY


   ---> DNN SUMMARY
input_shape = (None, 25)
output_shape = (None, 10)
_________________________________________________________________
Layer (type)                 Output Shape              Param #   
=================================================================
dense_8 (Dense)              (None, 90)                2340      
_________________________________________________________________
dense_9 (Dense)              (None, 70)                6370      
_________________________________________________________________
dense_10 (Dense)             (None, 50)                3550      
_________________________________________________________________
dense_11 (Dense)             (None, 40)                2040      
_________________________________________________________________
dense_12 (Dense)             (None, 30)                1230      
_________________________________________________________________
dense_13 (Dense)             (None, 20)                620       
_________________________________________________________________
dropout_5 (Dropout)          (None, 20)                0         
_________________________________________________________________
dense_14 (Dense)             (None, 10)                210       
=================================================================
Total params: 16,360
Trainable params: 16,360
Non-trainable params: 0
_________________________________________________________________
   ---> DNN END SUMMARY


   ---> DNN SUMMARY
input_shape = (None, 18)
output_shape = (None, 10)
_________________________________________________________________
Layer (type)                 Output Shape              Param #   
=================================================================
dense_15 (Dense)             (None, 90)                1710      
_________________________________________________________________
dense_16 (Dense)             (None, 70)                6370      
_________________________________________________________________
dense_17 (Dense)             (None, 50)                3550      
_________________________________________________________________
dense_18 (Dense)             (None, 40)                2040      
_________________________________________________________________
dense_19 (Dense)             (None, 30)                1230      
_________________________________________________________________
dense_20 (Dense)             (None, 20)                620       
_________________________________________________________________
dropout_6 (Dropout)          (None, 20)                0         
_________________________________________________________________
dense_21 (Dense)             (None, 10)                210       
=================================================================
Total params: 15,730
Trainable params: 15,730
Non-trainable params: 0
_________________________________________________________________
   ---> DNN END SUMMARY


   ---> CNN SUMMARY
input_shape = (None, 28, 28)
output_shape = (None, 10)
_________________________________________________________________
Layer (type)                 Output Shape              Param #   
=================================================================
reshape_2 (Reshape)          (None, 28, 28, 1)         0         
_________________________________________________________________
lambda_2 (Lambda)            (None, 28, 28, 1)         0         
_________________________________________________________________
conv2d_6 (Conv2D)            (None, 26, 26, 30)        300       
_________________________________________________________________
conv2d_7 (Conv2D)            (None, 24, 24, 25)        6775      
_________________________________________________________________
max_pooling2d_4 (MaxPooling2 (None, 12, 12, 25)        0         
_________________________________________________________________
dropout_7 (Dropout)          (None, 12, 12, 25)        0         
_________________________________________________________________
conv2d_8 (Conv2D)            (None, 10, 10, 25)        5650      
_________________________________________________________________
conv2d_9 (Conv2D)            (None, 8, 8, 20)          4520      
_________________________________________________________________
max_pooling2d_5 (MaxPooling2 (None, 4, 4, 20)          0         
_________________________________________________________________
dropout_8 (Dropout)          (None, 4, 4, 20)          0         
_________________________________________________________________
conv2d_10 (Conv2D)           (None, 2, 2, 25)          4525      
_________________________________________________________________
max_pooling2d_6 (MaxPooling2 (None, 1, 1, 25)          0         
_________________________________________________________________
dropout_9 (Dropout)          (None, 1, 1, 25)          0         
_________________________________________________________________
flatten_2 (Flatten)          (None, 25)                0         
_________________________________________________________________
dense_22 (Dense)             (None, 90)                2340      
_________________________________________________________________
dense_23 (Dense)             (None, 70)                6370      
_________________________________________________________________
dense_24 (Dense)             (None, 50)                3550      
_________________________________________________________________
dense_25 (Dense)             (None, 40)                2040      
_________________________________________________________________
dense_26 (Dense)             (None, 30)                1230      
_________________________________________________________________
dense_27 (Dense)             (None, 20)                620       
_________________________________________________________________
dropout_10 (Dropout)         (None, 20)                0         
_________________________________________________________________
dense_28 (Dense)             (None, 10)                210       
=================================================================
Total params: 38,130
Trainable params: 38,130
Non-trainable params: 0
_________________________________________________________________
   ---> CNN END SUMMARY


   ---> DNN SUMMARY
input_shape = (None, 25)
output_shape = (None, 10)
_________________________________________________________________
Layer (type)                 Output Shape              Param #   
=================================================================
dense_29 (Dense)             (None, 90)                2340      
_________________________________________________________________
dense_30 (Dense)             (None, 70)                6370      
_________________________________________________________________
dense_31 (Dense)             (None, 50)                3550      
_________________________________________________________________
dense_32 (Dense)             (None, 40)                2040      
_________________________________________________________________
dense_33 (Dense)             (None, 30)                1230      
_________________________________________________________________
dense_34 (Dense)             (None, 20)                620       
_________________________________________________________________
dropout_11 (Dropout)         (None, 20)                0         
_________________________________________________________________
dense_35 (Dense)             (None, 10)                210       
=================================================================
Total params: 16,360
Trainable params: 16,360
Non-trainable params: 0
_________________________________________________________________
   ---> DNN END SUMMARY

------>>>   RESULTS:
[
['epochs', ['cnn1', 'dnn_huConv', 'dnn_conv', 'cnn2', 'dnn_conv2'], ['descSortedIndexes']],
[1, [0.9539, 0.9609, 0.9568, 0.9665, 0.9717], [4, 3, 1, 2, 0]],
…
